system_ext/etc/model_0708.onnx (onnx, 265295 bytes, 12 tensors)

linear_layer0.weight f4 [1, 10, 1]
00000000: e2ce 20bf b311 12bf 5792 01bf 7b7f e9be
00000010: 3747 cfbe 95a6 b3be 9fe2 92be 9589 54be
00000020: 39cc 01be efeb 45bd
-0.6281568 -0.57058257 -0.5061392 -0.45605072 -0.4048402 -0.3508803 -0.28688523 -0.20755608
-0.12675561 -0.048320707

linear_layer.weight f4 [2, 64]
00000000: c8e3 1039 dca3 3d39 3afd 4039 0659 0439
00000010: 349c 8837 37d3 de38 f14b 2838 e10f 9d38
00000020: ad63 d438 3160 d936 6635 0e39 611c e937
00000030: b214 b138 8cef d538 e00b ba38 f051 3839
00000040: 18ba cf38 540f 5938 1471 5338 530c 0b39
00000050: b00b b038 fe6e 2d39 0baf c138 1e62 d238
00000060: aa30 e737 9c19 b538 6112 c538 3306 2038
00000070: 8e47 6c37 e9cb 1439 f766 1a38 1d72 1b39
00000080: b64e e938 23c3 c638 9a7e ed38 e0db b038
00000090: 4f88 dbbe 48dc c138 ca11 52b7 99b9 f6be
000000a0: d176 3e38 ac1c d538 dde3 2539 6a89 00bf
000000b0: b825 8e38 ba2f 2339 6118 dc3e d1d3 c938
000000c0: 5607 9c38 58bc 6238 31be 0e39 9c1c 7137
000000d0: d993 1939 ad9f b138 1b4a 9538 6261 c038
000000e0: 9cd6 e638 33da d738 3dad 6538 d12b 0339
000000f0: 19e6 0039 d77d 873e 965e 3e38 deb4 f2be
00000100: 95d8 10b9 179a 3db9 6c03 41b9 5a4d 04b9
00000110: e441 88b7 28da deb8 c51c 28b8 68f5 9cb8
00000120: c019 13b9 97e9 d7b6 eb29 0eb9 d9be e8b7
00000130: b7fd b0b8 4ed8 d5b8 c9f4 b9b8 cc46 38b9
00000140: a3a9 cfb8 9cf1 57b8 f36f 53b8 5e01 0bb9
00000150: 47f4 afb8 3864 2db9 9997 c1b8 564b d2b8
00000160: e1d7 e6b7 6203 b5b8 5afb c4b8 8eda 1fb8
00000170: a68f 6bb7 1cc0 14b9 ee31 1ab8 4566 1bb9
00000180: 6d38 e9b8 aca3 c6b8 e467 edb8 f8c4 b0b8
00000190: 1188 db3e 89c5 c1b8 14c2 5237 f1b7 f63e
000001a0: d548 3eb8 1007 d5b8 d7d8 25b9 b189 003f
000001b0: 3d0f 8eb8 e823 23b9 8818 dcbe 93c2 c9b8
000001c0: 76f0 9bb8 8a8f 62b8 99b2 0eb9 4466 70b7
000001d0: ffbd 19b9 5989 b1b8 3c33 95b8 e949 c0b8
000001e0: 46bf e6b8 d5c3 d7b8 3585 65b8 9b20 03b9
000001f0: 7fdb 00b9 e27d 87be 4431 3eb8 d8b4 f23e
0.00013817765 0.00018085487 0.00018404881 0.00012621665 1.6285201e-05 0.00010625127 4.0125047e-05 7.489301e-05
0.00010127514 6.478302e-06 0.00013562068 2.778898e-05 8.4438725e-05 0.000102012506 8.871383e-05 0.00017578132
9.905192e-05 5.1751107e-05 5.0411632e-05 0.00013260664 8.394511e-05 0.00016539913 9.2355614e-05 0.00010031856
2.7560007e-05 8.635523e-05 9.397115e-05 3.8152746e-05 1.4083356e-05 0.00014190342 3.6812355e-05 0.00014824462
0.00011124967 9.477723e-05 0.00011324622 8.433289e-05 -0.42877433 9.243988e-05 -1.2521117e-05 -0.48188475
4.5410186e-05 0.00010161972 0.00015820512 -0.5020968 6.778113e-05 0.00015562671 0.4298735 9.623881e-05
7.440026e-05 5.4058008e-05 0.00013613027 1.43713805e-05 0.00014646295 8.4697596e-05 7.118677e-05 9.1734124e-05
0.00011007229 0.00010292642 5.4759195e-05 0.00012509456 0.0001229275 0.26463196 4.538762e-05 -0.47403616
-0.00013813593 -0.00018081848 -0.00018407189 -0.00012617317 -1.6243146e-05 -0.0001062642 -4.0081115e-05 -7.48437e-05
-0.00014028605 -6.4346928e-06 -0.00013557791 -2.7745426e-05 -8.439592e-05 -0.00010196921 -8.867082e-05 -0.00017573981
-9.9021265e-05 -5.148501e-05 -5.041058e-05 -0.00013256582 -8.3901505e-05 -0.000165359 -9.2311944e-05 -0.00010027613
-2.7518663e-05 -8.631383e-05 -9.392826e-05 -3.81121e-05 -1.4040537e-05 -0.00014185946 -3.6762962e-05 -0.0001482005
-0.00011120816 -9.471862e-05 -0.00011320392 -8.429022e-05 0.42877248 -9.239751e-05 1.2562163e-05 0.4818721
-4.536736e-05 -0.00010157947 -0.00015816405 0.502101 -6.773926e-05 -0.00015558267 -0.42987466 -9.620669e-05
-7.435765e-05 -5.401628e-05 -0.00013608708 -1.4328925e-05 -0.00014661996 -8.465601e-05 -7.114417e-05 -9.16904e-05
-0.00011002882 -0.000102884755 -5.4721913e-05 -0.0001250528 -0.000122888 -0.26463228 -4.5345412e-05 0.47403598

linear_layer.bias f4 [2]
00000000: 77eb 2c3e 8dd5 31be
0.16886698 -0.1736662

onnx::LSTM_545 f4 [2, 256]
00000000: 4175 3bb9 35e8 0f39 b43b 7c38 b011 a6b8
00000010: 6e93 0e39 48a8 dcb6 a2b5 e3b6 89de 7c38
00000020: c904 10b9 aac4 e136 0108 e136 332f 3138
00000030: 5d45 7c38 6df3 65b7 4751 84b8 3c18 b5b6
00000040: fdf4 0fb9 d1a8 7bb8 c501 e1b6 db0f 1039
00000050: 7210 a5b8 f148 e4b6 668f 0839 a83d a83c
00000060: 4524 a5b8 7732 10b9 8305 7538 0124 80b8
00000070: 9820 7f37 d383 7438 04cf 4338 a748 10b9
00000080: 3269 74b8 9fcb 7b38 c70c 7c38 3a1f a6b8
00000090: 5935 74b8 95d4 dcb6 1558 e3b6 7ae7 7bb8
000000a0: 3742 7438 8dbb 66b7 d945 67b7 4f47 4438
000000b0: 2445 7c38 6796 dfb6 8fcc 7239 fd33 b536
000000c0: 6686 7c38 7f8c 7d37 c2eb e0b6 a57a e0b6
000000d0: c9f6 0db9 f3ef 7b38 c715 e0b6 139d ec3c
000000e0: 993e a5b8 6056 7cb8 95b9 66b7 eae7 73b8
000000f0: 6a21 7f37 de43 a5b8 d044 9b36 9348 10b9
00000100: e629 7c38 4aa1 de36 b6fa 7c38 a325 75b8
00000110: 4d7f 3b39 2934 7538 ee40 11b9 13c7 6737
00000120: 0e6d de36 7aa4 7438 c2c0 e2b6 2562 0f38
00000130: 64b2 7438 52fe dfb6 4047 84b8 30ab 74b8
00000140: 2828 11b9 09af 7238 b78f 6637 d9ac 74b8
00000150: 7981 15b8 2f63 e036 8a59 84b8 410a 3c3d
00000160: 72bb b436 7670 74b8 3413 6737 9ffd e836
00000170: 2f8c 7db8 4ed4 e136 4916 a539 ad74 db36
00000180: af0c 3cb9 794c 38b9 ed77 80b8 8349 6ab8
00000190: 7033 ee36 51d4 82b8 f64b 2138 f61b 2039
000001a0: cb78 8a37 2882 2f37 9ce9 a2b8 4f5d 18b8
000001b0: ef59 19b8 4c1c 5237 6d1c beb8 93bc 8037
000001c0: f8f2 53b8 c9b1 1039 5eca a0b6 1942 ae37
000001d0: ecd7 ae38 2ce3 ddb8 b3b2 2cb8 0c62 25bd
000001e0: cd74 62b8 3f3e 9538 f6ff 2cb7 8eda e837
000001f0: d5e9 20b9 192b 0eb7 d178 59b9 57b0 4439
00000200: 4175 3bb9 35e8 0f39 b43b 7c38 d111 a6b8
00000210: 6880 66b7 95e1 0fb9 a2b5 e3b6 89de 7c38
00000220: ca04 10b9 aac4 e136 8e08 e136 332f 3138
00000230: 5d45 7c38 6df3 65b7 b899 74b8 90af 74b8
00000240: 8d92 a538 d1a8 7bb8 c501 e1b6 db0f 1039
00000250: 7210 a5b8 f148 e4b6 0190 0839 a83d a83c
00000260: 4524 a5b8 9431 10b9 daef 0f39 0124 80b8
00000270: c09f 7a38 8484 7438 c2ce 4338 a748 10b9
00000280: 3269 74b8 9fcb 7b38 c70c 7c38 3a1f a6b8
00000290: 6135 74b8 95d4 dcb6 1558 e3b6 1101 09b9
000002a0: d541 7438 8dbb 66b7 ee45 67b7 4f47 4438
000002b0: 2445 7c38 cf97 dfb6 8fcc 7239 fb33 b536
000002c0: 3301 1eb9 7f8c 7d37 c2eb e0b6 a57a e0b6
000002d0: e1f6 0db9 0ef0 7b38 8215 e0b6 139d ec3c
000002e0: 993e a5b8 6056 7cb8 95b9 66b7 4d9f 0eb9
000002f0: 6a21 7f37 3743 a5b8 eb1c 9a37 9348 10b9
00000300: e629 7c38 05a1 de36 e723 1039 a325 75b8
00000310: 4d7f 3b39 2934 7538 5940 11b9 13c7 6737
00000320: 0e6d de36 79a4 7438 9ed0 e036 2562 0f38
00000330: f6d2 74b8 989e 7c38 f958 7cb8 30ab 74b8
00000340: 2828 11b9 03af 7238 178f 6637 d9ac 74b8
00000350: 7781 15b8 617c e3b6 8a59 84b8 410a 3c3d
00000360: 72bb b436 6d70 74b8 3413 6737 9ffd e836
00000370: 2f8c 7db8 2324 7cb8 4916 a539 ad74 db36
00000380: af0c 3cb9 794c 38b9 5fc3 5c38 e103 cab9
00000390: 4333 ee36 3cd6 ab37 f64b 2138 5d29 bcb7
000003a0: 9178 0637 2882 2f37 9ce9 a2b8 4f5d 18b8
000003b0: aa60 19b8 a6ba a538 cc9e 99b9 6cbc 8037
000003c0: 1a55 6039 a761 9638 5eca a0b6 3142 ae37
000003d0: c415 8cb6 d55d 92b8 b7df 5ab8 0a21 08bd
000003e0: cd74 62b8 3f3e 9538 4c4c ce38 2a65 2bb9
000003f0: d5e9 20b9 83e4 6f37 d178 59b9 32c7 b0b7
-0.0001787739 0.00013724047 6.0137085e-05 -7.9187914e-05 0.00013597097 -6.5761014e-06 -6.786272e-06 6.0288734e-05
-0.00013734693 6.7284172e-06 6.7064543e-06 4.2244046e-05 6.014608e-05 -1.3706141e-05 -6.3093896e-05 -5.3970416e-06
-0.00013728808 -6.0000286e-05 -6.7057285e-06 0.00013738817 -7.870876e-05 -6.803421e-06 0.00013023391 0.020537212
-7.874569e-05 -0.0001375171 5.8417685e-05 -6.110222e-05 1.5206773e-05 5.8296904e-05 4.668442e-05 -0.00013759975
-5.8272104e-05 6.00327e-05 6.009338e-05 -7.921313e-05 -5.8223817e-05 -6.5812587e-06 -6.7753813e-06 -6.0058643e-05
5.82358e-05 -1.3752736e-05 -1.3784936e-05 4.6796453e-05 6.0145874e-05 -6.663427e-06 0.00023155122 5.4002726e-06
6.020665e-05 1.5112687e-05 -6.703166e-06 -6.689998e-06 -0.00013538742 6.0066533e-05 -6.6782554e-06 0.028883493
-7.879473e-05 -6.0161925e-05 -1.37522775e-05 -5.81517e-05 1.5206964e-05 -7.880454e-05 4.627371e-06 -0.00013759946
6.0120503e-05 6.634892e-06 6.0314975e-05 -5.8447604e-05 0.00017881133 5.846113e-05 -0.00013852466 1.38150235e-05
6.628811e-06 5.8327314e-05 -6.757765e-06 3.418526e-05 5.8340273e-05 -6.6755247e-06 -6.307522e-05 -5.8333564e-05
-0.00013843237 5.786031e-05 1.37425295e-05 -5.833511e-05 -3.564495e-05 6.6872667e-06 -6.3109284e-05 0.045908216
5.3862395e-06 -5.827887e-05 1.3773144e-05 6.943664e-06 -6.0450457e-05 6.730238e-06 0.00031487856 6.5402915e-06
-0.00017933802 -0.00017576096 -6.1258535e-05 -5.585841e-05 7.098941e-06 -6.23843e-05 3.8456135e-05 0.00015269205
1.650713e-05 1.0461117e-05 -7.768275e-05 -3.6326524e-05 -3.65618e-05 1.2523564e-05 -9.065201e-05 1.53466e-05
-5.0532602e-05 0.0001379914 -4.79193e-06 2.0773196e-05 8.337185e-05 -0.00010580415 -4.1174422e-05 -0.040376708
-5.3991378e-05 7.116468e-05 -1.0311594e-05 2.7758328e-05 -0.00015345898 -8.473894e-06 -0.0002073974 0.00018757708
-0.0001787739 0.00013724047 6.0137085e-05 -7.9188154e-05 -1.3738965e-05 -0.00013721579 -6.786272e-06 6.0288734e-05
-0.00013734694 6.7284172e-06 6.7065184e-06 4.2244046e-05 6.014608e-05 -1.3706141e-05 -5.8317295e-05 -5.833764e-05
7.89511e-05 -6.0000286e-05 -6.7057285e-06 0.00013738817 -7.870876e-05 -6.803421e-06 0.00013023616 0.020537212
-7.874569e-05 -0.0001375138 0.00013726894 -6.110222e-05 5.9753424e-05 5.8297548e-05 4.668418e-05 -0.00013759975
-5.8272104e-05 6.00327e-05 6.009338e-05 -7.921313e-05 -5.8223846e-05 -6.5812587e-06 -6.7753813e-06 -0.00013065735
5.8235444e-05 -1.3752736e-05 -1.3784955e-05 4.6796453e-05 6.0145874e-05 -6.6635907e-06 0.00023155122 5.4002717e-06
-0.00015068501 1.5112687e-05 -6.703166e-06 -6.689998e-06 -0.00013538777 6.006663e-05 -6.678224e-06 0.028883493
-7.879473e-05 -6.0161925e-05 -1.37522775e-05 -0.0001360152 1.5206964e-05 -7.880333e-05 1.8371697e-05 -0.00013759946
6.0120503e-05 6.6348607e-06 0.00013746285 -5.8447604e-05 0.00017881133 5.846113e-05 -0.00013852249 1.38150235e-05
6.628811e-06 5.832731e-05 6.7000065e-06 3.418526e-05 -5.8370606e-05 6.0229184e-05 -6.0164344e-05 -5.8333564e-05
-0.00013843237 5.786029e-05 1.3742384e-05 -5.833511e-05 -3.564494e-05 -6.779607e-06 -6.3109284e-05 0.045908216
5.3862395e-06 -5.8278838e-05 1.3773144e-05 6.943664e-06 -6.0450457e-05 -6.0115137e-05 0.00031487856 6.5402915e-06
-0.00017933802 -0.00017576096 5.263404e-05 -0.00038531332 7.0989204e-06 2.048455e-05 3.8456135e-05 -2.2430608e-05
8.015094e-06 1.0461117e-05 -7.768275e-05 -3.6326524e-05 -3.6568068e-05 7.902579e-05 -0.00029300747 1.534653e-05
0.00021394007 7.1707465e-05 -4.79193e-06 2.077324e-05 -4.174859e-06 -6.9793e-05 -5.21836e-05 -0.033234634
-5.3991378e-05 7.116468e-05 9.837057e-05 -0.00016345517 -0.00015345898 1.4298715e-05 -0.0002073974 -2.1073593e-05

onnx::LSTM_546 f4 [2, 128, 18]
00000000: 288c 0e39 4d29 a5b8 15ef 0d39 d3f3 7bb8
00000010: a051 7c38 6e0d 1139 2b35 dfb6 3feb a438
00000020: 9503 1eb9 83c1 7338 a182 d5b6 c67a a3b8
00000030: 6c31 70b8 317d 5e38 321a 7b37 147d db36
00000040: 4ae2 a538 4ca9 0db9 d373 5db9 8ac9 65b7
00000050: 3ad3 a538 9c39 10b9 823f 1139 d39b 3bb9
00000060: 9cf5 0f39 d01b 3cb9 5a4a 7c38 132e 7b38
00000070: 09b1 8037 cc2b dd36 04bb 73b8 58a0 f0b6
00000080: 367e 0f39 5639 7438 037d 3bb9 c276 0e39
00000090: b394 71b9 14cf a438 6666 9f38 a861 0fb9
000000a0: 741e 0f39 9804 1339 43c5 6cb8 697a 7eb8
000000b0: c712 26b9 5cd7 c1b6 4ce9 73b8 2bac aab8
000000c0: 6b74 7439 0c72 62b8 6b71 8ab7 86f7 bb36
000000d0: a768 9f38 0561 bb37 0fcf 8438 7455 5e39
000000e0: 8d8c d636 e9b5 e0b6 5782 00b7 9c7d 0e39
000000f0: ac35 9bb8 feca 5db9 2dd9 41b9 260d 1eb9
00000100: 456d a9b8 d746 02b7 6fdf f6b6 995a 9bb7
00000110: 0dfd a6b9 aa37 09b7 0b9b 84b8 8ce0 26b8
00000120: 88f4 7b38 5592 0eb9 accf a438 23e0 0fb9
00000130: 4b5b 7438 5ffe dd36 c15e 0b39 2e16 73b8
00000140: 9be6 0f39 6f3a 3b39 0f8e 0137 a351 40b9
00000150: c6b0 df36 cc3f 5d38 c09e 8037 744b db36
00000160: 36b4 7fb7 ec82 5db8 6594 6637 4b25 86b7
00000170: 0412 7d38 b9b4 75b8 e02f 0939 c658 7538
00000180: 502a 10b9 1202 7bb8 2fe2 6937 72a9 61b7
00000190: 4f90 a3b8 b030 73b8 9e25 81b8 199a 7db8
000001a0: f158 e736 479e 7d38 8dc3 7ab8 2b65 7ab8
000001b0: 3c1d 3b39 3e93 7bb8 4ae0 73b8 6c29 0939
000001c0: 1994 66b7 1df9 0fb9 c7b0 0639 6939 a538
000001d0: ab5e 7c38 e637 a538 31dd 7db8 7329 a5b8
000001e0: 1b8c 7937 caa6 7937 82d7 7837 83a7 3b39
000001f0: 181b dcb6 438c dd36 3b2e 75b8 11f3 7cb8
00000200: 5af8 7a38 11ec 74b8 4935 7c38 129e 0fb9
00000210: f9be 7438 18ca d136 d9d5 e136 4d8f 80b8
00000220: a98d d7b6 2e55 a538 caf3 0fb9 bfd4 cbb6
00000230: 218f bcb8 ae81 a6b8 6d7a 10b9 829e 76b8
00000240: d3a9 0fb9 17ea 7bb8 e232 dc36 73f1 0f39
00000250: f974 7c38 6078 0e39 af6c 0eb9 9078 0eb9
00000260: 75d3 6837 838f 74b8 15e0 a338 e017 3bb9
00000270: a480 d736 a19d d736 e733 e6b6 8ba7 0037
00000280: 379f 72b8 0a42 da36 4728 e2b6 21a0 e0b6
00000290: 755f b536 e5b8 e136 541f 74b8 f559 7bb8
000002a0: c6bf 0bb9 7ad2 e236 e20e 6837 90a1 7438
000002b0: ebc3 1d38 6a59 deb6 f9dd a238 7028 78b8
000002c0: a077 da36 64ef a338 d2e6 ff36 8881 a238
000002d0: 70eb a5b8 62d6 d2b6 4c10 f336 7848 c536
000002e0: 713a 10b9 b296 7938 7a00 bc36 04c7 0eb9
000002f0: b030 81b8 0b84 a538 dcb1 f4b6 2c55 ecb6
00000300: 8a60 0037 7d2d 0db7 c60d f0b6 e9a4 2338
00000310: 2535 b8b6 7d28 c5b6 efd9 0f39 6968 a6b7
00000320: 87e2 33b9 fb84 b8b8 b2db 91b7 e8c0 95b8
00000330: 8c2b 4fb9 9ea4 30b9 fafe 0a39 4332 1539
00000340: 43c6 4e39 41c0 0d39 d1cd c9b6 cb2b 2e38
00000350: f82d ff36 3d87 1239 886c 2eb9 4d67 89b8
00000360: 4759 67b7 9a82 a538 95c8 74b8 c328 7db8
00000370: 30d5 a5b8 38d2 4c39 291c a5b8 1e47 0939
00000380: fc9f 7c38 9d70 7c38 f75b 61b7 3c73 74b8
00000390: 35a2 0939 e754 e936 4d70 0939 8a45 74b8
000003a0: ae98 d7b6 60b2 a538 2825 e036 dcfd a438
000003b0: 4c92 0f39 bcb4 0f39 20f5 8337 52e6 8137
000003c0: 4e9b 9eb8 deda 3ab9 b5ad 3bb9 e4c5 0e39
000003d0: a108 d0b6 6755 08b9 2fa0 04b9 9380 7e38
000003e0: 070d d336 01f5 d1b6 9d23 a4b8 1316 d1b6
000003f0: 4645 1139 ee92 84b8 f749 a538 1167 6637
0.00013594388 -7.875506e-05 0.00013535873 -6.0070142e-05 6.01575e-05 0.0001383328 -6.6521075e-06 7.8639474e-05
-0.00015069389 5.8115937e-05 -6.363102e-06 -7.795314e-05 -5.7266487e-05 5.3045518e-05 1.4966865e-05 6.5412696e-06
7.909963e-05 -0.00013509876 -0.0002111935 -1.3696388e-05 7.907157e-05 -0.00013754371 0.00013851936 -0.00017891759
0.0001372904 -0.00017939438 6.0150727e-05 5.9885973e-05 1.5341227e-05 6.591412e-06 -5.8109887e-05 -7.171224e-06
0.0001368456 5.822753e-05 -0.0001788028 0.00013586416 -0.00023038946 7.858701e-05 7.600784e-05 -0.00013673923
0.00013648887 0.00014020724 -5.64505e-05 -6.0672322e-05 -0.00015837989 -5.7769194e-06 -5.815299e-05 -8.1383005e-05
0.00023313022 -5.3988813e-05 -1.6503696e-05 5.60185e-06 7.601204e-05 2.2337315e-05 6.332818e-05 0.00021203404
6.3940593e-06 -6.6968973e-06 -7.659742e-06 0.00013588968 -7.400973e-05 -0.00021151823 -0.00018486819 -0.00015072952
-8.078901e-05 -7.7650975e-06 -7.3573824e-06 -1.8519628e-05 -0.00031850525 -8.178797e-06 -6.3231295e-05 -3.978661e-05
6.00708e-05 -0.00013596688 7.858811e-05 -0.0001372104 5.8259157e-05 6.615926e-06 0.00013291372 -5.795637e-05
0.0001372345 0.00017855478 7.722075e-06 -0.00018340959 6.666497e-06 5.274992e-05 1.5332713e-05 6.5354925e-06
-1.5241143e-05 -5.2812436e-05 1.3743619e-05 -1.599141e-05 6.033668e-05 -5.8580863e-05 0.00013083173 5.849523e-05
-0.00013748673 -5.984499e-05 1.3940545e-05 -1.3450497e-05 -7.799325e-05 -5.798106e-05 -6.158206e-05 -6.0463415e-05
6.8946906e-06 6.0467308e-05 -5.9786766e-05 -5.9698865e-05 0.000178446 -5.9980193e-05 -5.81446e-05 0.00013080769
-1.374355e-05 -0.00013730345 0.0001284509 7.8785066e-05 6.016965e-05 7.878225e-05 -6.05259e-05 -7.8755336e-05
1.4874177e-05 1.488039e-05 1.4832129e-05 0.00017896113 -6.559665e-06 6.602642e-06 -5.8455607e-05 -6.0307855e-05
5.983594e-05 -5.8393987e-05 6.0131108e-05 -0.00013696429 5.835199e-05 6.252212e-06 6.7304177e-06 -6.1302075e-05
-6.4239907e-06 7.883679e-05 -0.00013728361 -6.0746383e-06 -8.9911984e-05 -7.9396516e-05 -0.00013778517 -5.8798592e-05
-0.00013700807 -6.0061077e-05 6.5624345e-06 0.0001372749 6.019042e-05 0.00013587018 -0.00013582663 -0.00013587088
1.3877511e-05 -5.830779e-05 7.814184e-05 -0.00017842604 6.422475e-06 6.4258497e-06 -6.8605764e-06 7.668404e-06
-5.7845577e-05 6.5045942e-06 -6.7400138e-06 -6.6943617e-06 5.405333e-06 6.727047e-06 -5.820331e-05 -5.9926842e-05
-0.00013327514 6.7598276e-06 1.3831743e-05 5.83246e-05 3.761418e-05 -6.6265247e-06 7.7661076e-05 -5.9165468e-05
6.5108325e-06 7.817036e-05 7.6264632e-06 7.748889e-05 -7.911667e-05 -6.283445e-06 7.2438615e-06 5.879494e-06
-0.00013754681 5.9506572e-05 5.602892e-06 -0.00013616314 -6.160268e-05 7.892408e-05 -7.292472e-06 -7.0432634e-06
7.651872e-06 -8.414846e-06 -7.154161e-06 3.9015813e-05 -5.489814e-06 -5.875771e-06 0.0001371873 -1.9837362e-05
-0.00017155158 -8.798573e-05 -1.738765e-05 -7.140805e-05 -0.00019757281 -0.00016845993 0.00013255692 0.00014228471
0.00019719549 0.00013518428 -6.014227e-06 4.1525618e-05 7.6049437e-06 0.00013974025 -0.00016634364 -6.55191e-05
-1.3789459e-05 7.8921395e-05 -5.836094e-05 -6.0357863e-05 -7.9075224e-05 0.00019533269 -7.873058e-05 0.00013091831
6.023048e-05 6.018636e-05 -1.3432457e-05 -5.8281454e-05 0.00013125765 6.953825e-06 0.00013107173 -5.8238897e-05
-6.4252736e-06 7.901038e-05 6.6800458e-06 7.8674144e-05 0.00013692043 0.00013704872 1.5730562e-05 1.548525e-05
-7.562955e-05 -0.00017819877 -0.0001789842 0.00013615895 -6.1998876e-06 -0.00013001786 -0.00012648174 6.0678063e-05
6.2898066e-06 -6.2572076e-06 -7.826763e-05 -6.231255e-06 0.00013854084 -6.321618e-05 7.88159e-05 1.3733065e-05

onnx::LSTM_547 f4 [2, 128, 32]
00000000: f01a 10b9 cbf3 6637 0dbb 74b8 9e0d e236
00000010: 900f e2b6 3df2 6637 2d11 e2b6 160e e236
00000020: a50f e2b6 0010 e2b6 cde3 6637 50b4 3bb9
00000030: c50e e2b6 150e e236 a80e e236 a1b3 3b39
00000040: 7109 1039 ffba 7438 6c5b 8337 850f e236
00000050: c810 e2b6 03e4 66b7 0010 e2b6 efef 74b8
00000060: 450f e236 5c10 e236 09bb 7438 8598 7c38
00000070: 38b4 3b39 f20f e236 cdcb 7438 4a0f e2b6
00000080: 18c4 7438 2fbc 3bb9 6810 e2b6 880e e236
00000090: e80e e2b6 efed 66b7 100f e236 6709 1039
000000a0: cf0a e236 900f e236 c40a e236 a10c e2b6
000000b0: 1b09 10b9 190c e236 c010 e236 88dd 66b7
000000c0: 410b e236 6710 e236 e4bc 3b39 9c0a e2b6
000000d0: 9308 10b9 4192 7c38 c00f e2b6 e57c 6637
000000e0: 590a e2b6 840a e2b6 260d e2b6 0d0e e236
000000f0: 07b1 75b8 0a11 e236 4d08 10b9 ad0f e236
00000100: 100f e236 2012 e236 37ee e136 c335 e2b6
00000110: 7616 e236 3520 e236 1012 e2b6 c70b e2b6
00000120: 021d e2b6 650e e236 bff8 e136 f567 8438
00000130: fa21 e2b6 6b16 e236 330a e236 8d0e e2b6
00000140: c608 e236 7167 84b8 cd13 e236 2a67 84b8
00000150: e50a e236 b20a e2b6 3d17 e2b6 a5f1 6337
00000160: a213 e236 000f e236 d50b e2b6 b80a e2b6
00000170: e2e6 e1b6 1868 8438 8b22 e3b6 4610 e236
00000180: 610e e2b6 1a0f e236 8215 e236 c016 e236
00000190: f510 e2b6 6013 e2b6 8510 e236 750f e2b6
000001a0: f70d e2b6 900e e236 6f0e e2b6 f809 e2b6
000001b0: d00e e2b6 720f e2b6 070c e236 ba13 e236
000001c0: 570d e236 4d67 8438 c011 e2b6 2012 e236
000001d0: 9d10 e236 c011 e2b6 ba0f e236 17ea 0f39
000001e0: cd0c e236 0012 e2b6 960a e236 8011 e2b6
000001f0: b814 e2b6 3d12 e2b6 46a6 e136 470c e2b6
00000200: 1a67 8438 7c66 84b8 1267 8438 0667 84b8
00000210: feef e136 363c b5b6 10d4 7438 1c67 8438
00000220: d586 7cb8 b6e0 0eb9 0e67 8438 e30f e2b6
00000230: b50f e2b6 e5ce 7438 3739 b536 6510 e2b6
00000240: 8a0f e2b6 9c7b 7cb8 6266 84b8 143a b536
00000250: 1867 84b8 5f66 84b8 4686 7c38 8b9c 7438
00000260: c00f e2b6 44e7 e136 4d88 7c38 5ae3 66b7
00000270: 8366 8438 7a0f e2b6 393a b536 15e2 6637
00000280: 4095 7c38 ae10 e236 d907 e236 7009 1039
00000290: bb0a e236 0996 7c38 3510 e236 b50f e2b6
000002a0: 0c10 e236 900f e236 1f0c e236 a6b1 7538
000002b0: 4e09 10b9 850f e2b6 5b09 10b9 5bb1 75b8
000002c0: 2a10 e2b6 6b0f e236 9a97 7c38 800f e236
000002d0: 950f e2b6 f7af 7538 8f0f e2b6 b9a2 6737
000002e0: f00d e236 f60d e2b6 3f10 e2b6 cd08 10b9
000002f0: 4609 1039 900f e236 7b19 e236 7509 1039
00000300: 732a 09b9 7a0f e2b6 7a10 e236 230f e236
00000310: 28cc 7438 2467 84b8 3ee0 6637 250f e2b6
00000320: ff09 1039 1ec2 74b8 d20e e2b6 1d10 e2b6
00000330: 450f e2b6 e42a 09b9 9a10 e2b6 f72a 09b9
00000340: 750f e236 b49d a5b8 c010 e2b6 4710 e2b6
00000350: 5c10 e236 9a10 e2b6 5d2a 09b9 e169 84b8
00000360: 280f e236 e3d3 74b8 a66a 84b8 f92a 0939
00000370: b10e e236 0010 e236 7010 e2b6 3086 7cb8
00000380: f810 e2b6 da0f e2b6 2816 e2b6 29dc 6637
00000390: 7b0c e2b6 d50e e2b6 e60d e236 bb09 10b9
000003a0: 480f e236 f509 10b9 0e12 e2b6 2011 e236
000003b0: c1d0 7438 7109 10b9 6209 10b9 5c09 1039
000003c0: f809 10b9 c010 e2b6 e710 e2b6 900e e236
000003d0: 930e e236 860d e2b6 fa09 10b9 9801 1039
000003e0: 86df 6637 7b09 10b9 57df 66b7 5e09 10b9
000003f0: 5818 e236 0e0a 1039 9c0a 10b9 8909 10b9
-0.00013742945 1.3765831e-05 -5.8348338e-05 6.73691e-06 -6.7371366e-06 1.3765469e-05 -6.7373244e-06 6.7369647e-06
-6.737146e-06 -6.7371875e-06 1.3762107e-05 -0.00017900881 -6.7370443e-06 6.736964e-06 6.737031e-06 0.00017900627
0.00013736427 5.8348287e-05 1.5658989e-05 6.7371316e-06 -6.7372785e-06 -1.3762156e-05 -6.7371875e-06 -5.839759e-05
6.7371025e-06 6.7372293e-06 5.8348323e-05 6.0223527e-05 0.00017900846 6.737181e-06 5.8363938e-05 -6.7371047e-06
5.835676e-05 -0.00017903814 -6.737235e-06 6.7370165e-06 -6.73706e-06 -1.37644665e-05 6.7370784e-06 0.00013736413
6.736583e-06 6.7371366e-06 6.736578e-06 -6.736795e-06 -0.00013736302 6.736733e-06 6.737275e-06 -1.3760648e-05
6.736635e-06 6.7372343e-06 0.00017904077 -6.73656e-06 -0.00013736104 6.021769e-05 -6.7371584e-06 1.3738148e-05
-6.7365295e-06 -6.736549e-06 -6.7368555e-06 6.7369606e-06 -5.857742e-05 6.7373085e-06 -0.00013736002 6.7371498e-06
6.7370784e-06 6.737435e-06 6.7332544e-06 -6.7415835e-06 6.7379397e-06 6.7390743e-06 -6.7374276e-06 -6.736696e-06
-6.738702e-06 6.7370006e-06 6.7344804e-06 6.313614e-05 -6.7392803e-06 6.7379347e-06 6.736512e-06 -6.737019e-06
6.736346e-06 -6.313518e-05 6.73763e-06 -6.313466e-05 6.736593e-06 -6.73657e-06 -6.73803e-06 1.3586517e-05
6.7376104e-06 6.737071e-06 -6.7367023e-06 -6.7365727e-06 -6.732401e-06 6.3136395e-05 -6.7691485e-06 6.7372193e-06
-6.736999e-06 6.737083e-06 6.7378287e-06 6.7379733e-06 -6.737299e-06 -6.7375804e-06 6.737248e-06 -6.7371243e-06
-6.7369506e-06 6.73702e-06 -6.737005e-06 -6.7364854e-06 -6.7370493e-06 -6.737123e-06 6.736725e-06 6.7376213e-06
6.736878e-06 6.313492e-05 -6.7373912e-06 6.737435e-06 6.737259e-06 -6.7373912e-06 6.7371557e-06 0.00013724748
6.736815e-06 -6.7374203e-06 6.736557e-06 -6.737362e-06 -6.737737e-06 -6.737448e-06 6.7248793e-06 -6.736754e-06
6.313455e-05 -6.31334e-05 6.313449e-05 -6.31344e-05 6.7334613e-06 -5.40123e-06 5.8371632e-05 6.313456e-05
-6.0207054e-05 -0.00013625887 6.313446e-05 -6.7371743e-06 -6.7371534e-06 5.836682e-05 5.400881e-06 -6.7372334e-06
-6.737134e-06 -6.0196602e-05 -6.313321e-05 5.4009815e-06 -6.313453e-05 -6.3133186e-05 6.0206534e-05 5.8319925e-05
-6.7371584e-06 6.7324454e-06 6.0208422e-05 -1.3762003e-05 6.313345e-05 -6.7371266e-06 5.4009984e-06 1.3761707e-05
6.0220482e-05 6.7372666e-06 6.7362384e-06 0.00013736426 6.736574e-06 6.0221213e-05 6.7372116e-06 -6.7371534e-06
6.737193e-06 6.7371366e-06 6.736736e-06 5.8578e-05 -0.00013736376 -6.7371316e-06 -0.00013736395 -5.8577727e-05
-6.7372066e-06 6.7371197e-06 6.0222672e-05 6.7371293e-06 -6.737139e-06 5.8576432e-05 -6.737136e-06 1.380656e-05
6.7369474e-06 -6.73695e-06 -6.737216e-06 -0.00013736189 0.00013736365 6.7371366e-06 6.738291e-06 0.00013736433
-0.00013081152 -6.7371266e-06 6.737243e-06 6.737087e-06 5.836427e-05 -6.313462e-05 1.3761279e-05 -6.737088e-06
0.00013736634 -5.835492e-05 -6.73705e-06 -6.7372007e-06 -6.7371025e-06 -0.00013081316 -6.7372575e-06 -0.00013081344
6.7371243e-06 -7.8971876e-05 -6.737275e-06 -6.73722e-06 6.7372293e-06 -6.7372575e-06 -0.0001308112 -6.313972e-05
6.7370893e-06 -5.837147e-05 -6.314115e-05 0.00013081347 6.737035e-06 6.7371875e-06 -6.7372384e-06 -6.0206454e-05
-6.7373003e-06 -6.73717e-06 -6.737904e-06 1.3760328e-05 -6.736778e-06 -6.7370515e-06 6.736943e-06 -0.00013736535
6.737104e-06 -0.0001373662 -6.7374267e-06 6.7373185e-06 5.836855e-05 -0.00013736427 -0.00013736406 0.00013736397
-0.00013736624 -6.737275e-06 -6.7372926e-06 6.73702e-06 6.7370215e-06 -6.736899e-06 -0.00013736627 0.00013733504
1.3761111e-05 -0.00013736442 -1.3761069e-05 -0.000137364 6.738159e-06 0.00013736656 -0.00013736862 -0.00013736462

onnx::LSTM_592 f4 [2, 256]
00000000: f2d2 a5b8 c3c7 0eb9 7e1b 10b9 7866 7c38
00000010: 3ddf 7438 1bd4 4139 1a08 75b8 b649 a5b8
00000020: 9ffd 0f39 5008 dc36 0dfc 0fb9 af60 0c3e
00000030: 0586 7438 ddb9 7239 7501 1839 5adb 3db9
00000040: 992c a538 489a 063e 30ec 7c38 65bf 2438
00000050: eb22 e236 f11e e3b6 ddad a538 3e00 1039
00000060: 6f9d 7438 b301 6737 7207 1039 9c6a 7438
00000070: 883d b9b6 0f80 74b8 a405 2538 41fb 0e39
00000080: eed2 a5b8 b8c7 0eb9 7e1b 10b9 2561 6637
00000090: 41df 7438 240f b536 1208 75b8 ba49 a5b8
000000a0: 9ffd 0f39 ba7b 75b8 0bfc 0fb9 7244 253e
000000b0: fb8c e036 bfb9 7239 e201 1839 5adb 3db9
000000c0: b32c a538 4d0a 1f3e d933 7538 3fbf 2438
000000d0: 4e22 e236 20e2 0eb9 b8ad a538 a80d 10b9
000000e0: bb7e 67b7 0901 6737 7207 1039 b26a 7438
000000f0: b48a 80b8 0480 74b8 8705 2538 9a55 a5b8
00000100: a3d2 a5b8 e7c8 0eb9 c886 84b8 b74a 6637
00000110: 2e2a 11b9 3207 b636 3173 7438 8f13 7538
00000120: 07dd 0eb9 0d41 dd36 1c88 8438 78a8 2d3e
00000130: 65f1 72b9 dc20 69b7 e19f a5b8 afe3 3db9
00000140: f5e1 0f39 fc84 273e c9cd 7c38 76d9 0e39
00000150: 7a10 10b9 1939 11b9 81d9 e0b6 21d6 74b8
00000160: 6f1d 67b7 76ea 6637 d3ba 7438 19ea 67b7
00000170: c86f b9b6 68fb 0fb9 652b 66b7 6c71 a5b8
00000180: 2807 1f38 fca5 3639 41fb 8f38 ec4f e337
00000190: 62c9 3b39 aa58 1e39 e1b1 8739 edd7 cfb8
000001a0: 69c2 ec38 aa5e 30b8 8ba0 f638 6547 a4bb
000001b0: 0a81 fe37 a64d 3238 556f a438 904a 0b39
000001c0: 4a2c b438 b46c cb3b edb6 5ab8 52d5 7639
000001d0: 776e 8c37 05dd cdb7 cf73 9337 17af b538
000001e0: 7fa9 3237 41c8 5d39 7259 0f39 d325 ac39
000001f0: 85f1 fa37 0962 65b8 dcb3 7bb8 2c97 3238
00000200: f2d2 a5b8 c3c7 0eb9 7e1b 10b9 aa61 6637
00000210: 3ddf 7438 3a10 b536 1a08 75b8 b649 a5b8
00000220: 3795 e036 0e09 dc36 0dfc 0fb9 af60 0c3e
00000230: 1446 67b7 bdb9 7239 dc01 1839 5adb 3db9
00000240: a42c a538 489a 063e 30ec 7c38 d388 6637
00000250: 4e22 e236 f11e e3b6 ddad a538 4800 1039
00000260: 287e 67b7 b301 6737 7207 1039 5481 e4b6
00000270: 273c b9b6 0f80 74b8 a405 2538 41fb 0e39
00000280: eed2 a5b8 c3c7 0eb9 831b 10b9 8066 7c38
00000290: 41df 7438 1cd4 4139 1208 75b8 894a a5b8
000002a0: 4793 e036 4e0b dc36 0bfc 0fb9 7244 253e
000002b0: 1386 7438 b3b9 7239 d901 1839 e5da 3db9
000002c0: 972d a538 4d0a 1f3e 43ec 7c38 3fbf 2438
000002d0: ab22 e236 abdb 74b8 b8ad a538 0f46 83b7
000002e0: bb7e 67b7 0901 6737 7207 1039 b26a 7438
000002f0: b48a 80b8 0480 74b8 8705 2538 50fb 0e39
00000300: a3d2 a5b8 e7c8 0eb9 e742 11b9 144b 6637
00000310: 0d2a 11b9 3207 b636 57f7 0f39 6871 e536
00000320: 07dd 0eb9 9341 dd36 6188 8438 78a8 2d3e
00000330: 6df1 72b9 511f 69b7 e19f a5b8 afe3 3db9
00000340: f5e1 0f39 fc84 273e c9cd 7c38 76d9 0e39
00000350: 7a10 10b9 fd39 11b9 81d9 e0b6 21d6 74b8
00000360: 6f1d 67b7 76ea 6637 d3ba 7438 dc78 7438
00000370: fd6d b9b6 68fb 0fb9 652b 66b7 74ed 0e39
00000380: 7006 1f38 a1ad 3639 effd 9638 086a e337
00000390: d8c4 3b39 aa58 1e39 e1b1 8739 ced7 cfb8
000003a0: 4125 1839 a95e 30b8 1528 0439 46be 4cbc
000003b0: e080 fe37 a64d 3238 556f a438 2e03 0b39
000003c0: 482c b438 5b83 ef3b f4c4 2139 5fd5 7639
000003d0: 776e 8c37 af11 b2b7 cf73 9337 22e4 11b7
000003e0: 7fa9 3237 45c8 5d39 0f92 98b9 d325 ac39
000003f0: 6c3a dfb8 0962 65b8 f5b7 5738 809d 3238
-7.907105e-05 -0.00013616592 -0.00013743152 6.0176913e-05 5.838204e-05 0.0001848493 -5.8420097e-05 -7.881543e-05
0.00013732024 6.5574786e-06 -0.00013731439 0.13708757 5.829895e-05 0.00023148158 0.00014496392 -0.0001810616
7.87612e-05 0.13144791 6.030145e-05 3.9278897e-05 6.73939e-06 -6.7687292e-06 7.900198e-05 0.00013733
5.8320755e-05 1.3769069e-05 0.00013735684 5.827342e-05 -5.520593e-06 -5.8293397e-05 3.934432e-05 0.00013635775
-7.907102e-05 -0.00013616576 -0.00013743152 1.37316865e-05 5.8382055e-05 5.395983e-06 -5.8420068e-05 -7.881546e-05
0.00013732024 -5.852778e-05 -0.00013731436 0.16139391 6.6921325e-06 0.00023148114 0.00014496551 -0.0001810616
7.876139e-05 0.15531273 5.846084e-05 3.927876e-05 6.7393185e-06 -0.00013626413 7.900171e-05 -0.00013737998
-1.379818e-05 1.3768914e-05 0.00013735684 5.82735e-05 -6.129351e-05 -5.8293357e-05 3.9344213e-05 -7.883758e-05
-7.907047e-05 -0.00013617017 -6.3193555e-05 1.3726464e-05 -0.00013843991 5.4248603e-06 5.8281414e-05 5.8430767e-05
-0.00013624514 6.593886e-06 6.319603e-05 0.16958797 -0.00023168845 -1.3895533e-05 -7.897593e-05 -0.00018109263
0.00013721718 0.16359323 6.0273134e-05 0.00013623186 -0.00013739048 -0.00013849548 -6.701041e-06 -5.8373556e-05
-1.3775526e-05 1.3763658e-05 5.8348127e-05 -1.3823178e-05 -5.5264427e-06 -0.00013731199 -1.3719172e-05 -7.8889396e-05
3.791522e-05 0.00017418707 6.865571e-05 2.7097725e-05 0.0001790873 0.00015101084 0.00025881737 -9.9107485e-05
0.00011289569 -4.2049833e-05 0.000117600975 -0.0050133937 3.0339248e-05 4.2510823e-05 7.8408666e-05 0.0001328385
8.591318e-05 0.006208027 -5.2145613e-05 0.00023539856 1.674074e-05 -2.4540825e-05 1.7577693e-05 8.6633656e-05
1.0649091e-05 0.00021150803 0.00013670864 0.00032834578 2.9914789e-05 -5.4689157e-05 -6.001057e-05 4.2579297e-05
-7.907105e-05 -0.00013616592 -0.00013743152 1.37318075e-05 5.838204e-05 5.3961094e-06 -5.8420097e-05 -7.881543e-05
6.693091e-06 6.557565e-06 -0.00013731439 0.13708757 -1.3784989e-05 0.00023148111 0.00014496542 -0.0001810616
7.876128e-05 0.13144791 6.030145e-05 1.3740925e-05 6.7393185e-06 -6.7687292e-06 7.900198e-05 0.00013733015
-1.3798046e-05 1.3769069e-05 0.00013735684 -6.8099853e-06 -5.5204323e-06 -5.8293397e-05 3.934432e-05 0.00013635775
-7.907102e-05 -0.00013616592 -0.00013743159 6.0176942e-05 5.8382055e-05 0.00018484931 -5.8420068e-05 -7.8816964e-05
6.6928656e-06 6.557827e-06 -0.00013731436 0.16139391 5.8299e-05 0.00023148097 0.00014496538 -0.00018105989
7.876305e-05 0.15531273 6.0301518e-05 3.927876e-05 6.7393607e-06 -5.8378715e-05 7.900171e-05 -1.564904e-05
-1.379818e-05 1.3768914e-05 0.00013735684 5.82735e-05 -6.129351e-05 -5.8293357e-05 3.9344213e-05 0.00013635796
-7.907047e-05 -0.00013617017 -0.000138532 1.3726549e-05 -0.00013843943 5.4248603e-06 0.00013729684 6.837934e-06
-0.00013624514 6.593947e-06 6.319653e-05 0.16958797 -0.00023168857 -1.3895174e-05 -7.897593e-05 -0.00018109263
0.00013721718 0.16359323 6.0273134e-05 0.00013623186 -0.00013739048 -0.0001384988 -6.701041e-06 -5.8373556e-05
-1.3775526e-05 1.3763658e-05 5.8348127e-05 5.8286692e-05 -5.526234e-06 -0.00013731199 -1.3719172e-05 0.00013630633
3.791455e-05 0.00017421554 7.199856e-05 2.7109883e-05 0.0001790704 0.00015101084 0.00025881737 -9.910726e-05
0.00014509728 -4.204983e-05 0.00012603433 -0.012496537 3.0339172e-05 4.2510823e-05 7.8408666e-05 0.00013257258
8.591317e-05 0.00730936 0.00015427527 0.00023539875 1.674074e-05 -2.1227488e-05 1.7577693e-05 -8.69579e-06
1.0649091e-05 0.00021150809 -0.0002910052 0.00032834578 -0.000106443506 -5.4689157e-05 5.1431318e-05 4.258519e-05

onnx::LSTM_593 f4 [2, 128, 64]
00000000: 4011 e2b6 900f e236 4013 e2b6 b70d e236
00000010: 900f e236 900f e236 900f e2b6 900f e236
00000020: 100f e2b6 0010 e2b6 d00e e236 500e e236
00000030: 500f e2b6 c00f e236 4010 e2b6 0010 e236
00000040: 0010 e2b6 c00f e236 c00f e2b6 0010 e236
00000050: 900f e236 0010 e236 c00f e236 410f e2b6
00000060: 500e e2b6 c00f e236 8010 e2b6 c00f e236
00000070: 4013 e236 0010 e2b6 0023 e2b6 0010 e2b6
00000080: b561 e1b6 900e e2b6 0010 e2b6 900e e2b6
00000090: c011 e236 100f e236 a159 7cb8 e190 e136
000000a0: 500f e236 500f e2b6 4011 e236 8011 e2b6
000000b0: 100f e2b6 c00f e2b6 fb38 e236 100f e236
000000c0: 064f b7b6 dc71 84b8 c00f e2b6 c010 e2b6
000000d0: 0010 e2b6 0010 e2b6 900e e2b6 0010 e2b6
000000e0: 4010 e2b6 c00f e236 100f e2b6 c00f e2b6
000000f0: 459e e1b6 0010 e2b6 d00e e236 d010 e2b6
00000100: 900f e2b6 500e e236 c00e e2b6 0011 e236
00000110: 4010 e236 c00f e236 0010 e2b6 900f e2b6
00000120: c010 e2b6 c010 e2b6 8010 e2b6 900e e2b6
00000130: 4010 e2b6 c010 e2b6 900f e2b6 0011 e236
00000140: d00e e236 0010 e236 900f e236 900f e2b6
00000150: c00f e236 d00e e236 4011 e236 85aa df36
00000160: 0010 e236 0010 e236 0011 e236 900e e236
00000170: c00f e2b6 c010 e2b6 ea13 e2b6 900f e2b6
00000180: ea0c 1039 900f e236 4010 e2b6 530e e2b6
00000190: 0010 e236 4010 e2b6 3562 e1b6 b049 e036
000001a0: 500f e236 0010 e2b6 0011 e2b6 4010 e2b6
000001b0: c00f e2b6 8010 e2b6 1add e236 8010 e236
000001c0: 4da4 dd36 3f0c 10b9 c00f e2b6 500f e2b6
000001d0: 900e e2b6 900f e2b6 0010 e2b6 100f e2b6
000001e0: 8a0f e2b6 0010 e236 900e e236 8a0f e236
000001f0: 7a4f e0b6 d50f e236 900f e2b6 4011 e236
00000200: d30f e236 c00f e2b6 c00f e2b6 0011 e236
00000210: 0010 e236 0010 e236 0010 e2b6 0010 e2b6
00000220: 0010 e236 c00f e2b6 0010 e236 900f e2b6
00000230: 4178 7c38 0010 e2b6 c00f e2b6 fd09 10b9
00000240: 900f e236 c00f e236 0010 e236 900f e236
00000250: 0010 e2b6 c00f e2b6 900f e2b6 a635 11b9
00000260: 0010 e236 c00f e2b6 0010 e236 c00f e236
00000270: fd09 1039 c010 e2b6 1a17 e2b6 c00f e236
00000280: 42de 7438 c6bb 74b8 900f e236 c00f e2b6
00000290: ca10 e2b6 900f e236 33fc 74b8 c6e8 e2b6
000002a0: 900f e236 0010 e236 c00f e236 4a0f e2b6
000002b0: c00f e236 c00f e2b6 709b 7c38 c00f e2b6
000002c0: ac39 e036 b94f 8438 d00e e236 500e e236
000002d0: 0010 e236 900f e236 c00f e236 4010 e2b6
000002e0: 0010 e2b6 c00f e236 9f10 e236 c00f e236
000002f0: a704 10b9 c00f e2b6 c00f e2b6 8cbb 74b8
00000300: 4509 1039 020f e236 500e e236 4011 e2b6
00000310: c00f e236 7a09 1039 c00f e236 c00f e2b6
00000320: 900f e2b6 c00f e2b6 d20e e236 7509 10b9
00000330: c00f e236 0010 e236 500e e2b6 6f09 1039
00000340: c00f e236 500f e236 ab11 e236 c00f e2b6
00000350: 900f e236 7009 10b9 130f e2b6 33f4 6637
00000360: d00e e2b6 0010 e2b6 c00f e236 f010 e236
00000370: 8209 1039 900e e2b6 a307 e236 500f e236
00000380: 0ad1 74b8 0010 e236 900f e236 900f e2b6
00000390: c010 e2b6 c00f e2b6 563e 1eb9 c660 b5b6
000003a0: 900f e236 c010 e236 900f e236 8010 e2b6
000003b0: 900f e2b6 b00e e236 0adc 6637 c011 e2b6
000003c0: e9ae df36 f9c5 bab6 1510 e2b6 500f e236
000003d0: 900f e2b6 500f e2b6 c00f e236 100f e236
000003e0: 0010 e236 0010 e236 c010 e236 6011 e2b6
000003f0: dca5 3bb9 0010 e2b6 c00f e2b6 0010 e236
-6.737333e-06 6.7371366e-06 -6.737566e-06 6.7369215e-06 6.7371366e-06 6.7371366e-06 -6.7371366e-06 6.7371366e-06
-6.7370784e-06 -6.7371875e-06 6.7370493e-06 6.736991e-06 -6.7371075e-06 6.7371584e-06 -6.7372166e-06 6.7371875e-06
-6.7371875e-06 6.7371584e-06 -6.7371584e-06 6.7371875e-06 6.7371366e-06 6.7371875e-06 6.7371584e-06 -6.7371006e-06
-6.736991e-06 6.7371584e-06 -6.7372457e-06 6.7371584e-06 6.737566e-06 -6.7371875e-06 -6.7393994e-06 -6.7371875e-06
-6.716897e-06 -6.73702e-06 -6.7371875e-06 -6.73702e-06 6.7373912e-06 6.7370784e-06 -6.0164955e-05 6.7223887e-06
6.7371075e-06 -6.7371075e-06 6.737333e-06 -6.737362e-06 -6.7370784e-06 -6.7371584e-06 6.7419583e-06 6.7370784e-06
-5.4630245e-06 -6.3154584e-05 -6.7371584e-06 -6.737275e-06 -6.7371875e-06 -6.7371875e-06 -6.73702e-06 -6.7371875e-06
-6.7372166e-06 6.7371584e-06 -6.7370784e-06 -6.7371584e-06 -6.7239475e-06 -6.7371875e-06 6.7370493e-06 -6.737282e-06
-6.7371366e-06 6.736991e-06 -6.737042e-06 6.737304e-06 6.7372166e-06 6.7371584e-06 -6.7371875e-06 -6.7371366e-06
-6.737275e-06 -6.737275e-06 -6.7372457e-06 -6.73702e-06 -6.7372166e-06 -6.737275e-06 -6.7371366e-06 6.737304e-06
6.7370493e-06 6.7371875e-06 6.7371366e-06 -6.7371366e-06 6.7371584e-06 6.7370493e-06 6.737333e-06 6.665769e-06
6.7371875e-06 6.7371875e-06 6.737304e-06 6.73702e-06 -6.7371584e-06 -6.737275e-06 -6.737643e-06 -6.7371366e-06
0.00013737721 6.7371366e-06 -6.7372166e-06 -6.7369924e-06 6.7371875e-06 -6.7372166e-06 -6.7169553e-06 6.6842986e-06
6.7371075e-06 -6.7371875e-06 -6.737304e-06 -6.7372166e-06 -6.7371584e-06 -6.7372457e-06 6.7610645e-06 6.7372457e-06
6.6054404e-06 -0.00013737472 -6.7371584e-06 -6.7371075e-06 -6.73702e-06 -6.7371366e-06 -6.7371875e-06 -6.7370784e-06
-6.737134e-06 6.7371875e-06 6.73702e-06 6.737134e-06 -6.6849725e-06 6.737168e-06 -6.7371366e-06 6.737333e-06
6.737167e-06 -6.7371584e-06 -6.7371584e-06 6.737304e-06 6.7371875e-06 6.7371875e-06 -6.7371875e-06 -6.7371875e-06
6.7371875e-06 -6.7371584e-06 6.7371875e-06 -6.7371366e-06 6.0193477e-05 -6.7371875e-06 -6.7371584e-06 -0.00013736631
6.7371366e-06 6.7371584e-06 6.7371875e-06 6.7371366e-06 -6.7371875e-06 -6.7371584e-06 -6.7371366e-06 -0.00013848263
6.7371875e-06 -6.7371584e-06 6.7371875e-06 6.7371584e-06 0.00013736631 -6.737275e-06 -6.7380142e-06 6.7371584e-06
5.8381127e-05 -5.834901e-05 6.7371366e-06 -6.7371584e-06 -6.7372794e-06 6.7371366e-06 -5.8409012e-05 -6.7624233e-06
6.7371366e-06 6.7371875e-06 6.7371584e-06 -6.7371047e-06 6.7371584e-06 -6.7371584e-06 6.0226244e-05 -6.7371584e-06
6.682434e-06 6.3091e-05 6.7370493e-06 6.736991e-06 6.7371875e-06 6.7371366e-06 6.7371584e-06 -6.7372166e-06
-6.7371875e-06 6.7371584e-06 6.73726e-06 6.7371584e-06 -0.00013734643 -6.7371584e-06 -6.7371584e-06 -5.83488e-05
0.00013736363 6.737072e-06 6.736991e-06 -6.737333e-06 6.7371584e-06 0.0001373644 6.7371584e-06 -6.7371584e-06
-6.7371366e-06 -6.7371584e-06 6.73705e-06 -0.00013736433 6.7371584e-06 6.7371875e-06 -6.736991e-06 0.00013736424
6.7371584e-06 6.7371075e-06 6.7373817e-06 -6.7371584e-06 6.7371366e-06 -0.00013736426 -6.7370797e-06 1.3765925e-05
-6.7370493e-06 -6.7371875e-06 6.7371584e-06 6.7372966e-06 0.00013736452 -6.73702e-06 6.736214e-06 6.7371075e-06
-5.8368816e-05 6.7371875e-06 6.7371366e-06 -6.7371366e-06 -6.737275e-06 -6.7371584e-06 -0.00015091276 -5.4054863e-06
6.7371366e-06 6.737275e-06 6.7371366e-06 -6.7372457e-06 -6.7371366e-06 6.7370347e-06 1.37603e-05 -6.7373912e-06
6.66628e-06 -5.566279e-06 -6.737197e-06 6.7371075e-06 -6.7371366e-06 -6.7371075e-06 6.7371584e-06 6.7370784e-06
6.7371875e-06 6.7371875e-06 6.737275e-06 -6.7373476e-06 -0.00017895497 -6.7371875e-06 -6.7371584e-06 6.7371875e-06

onnx::LSTM_594 f4 [2, 128, 32]
00000000: c00f e2b6 c00f e2b6 c00f e2b6 500f e236
00000010: 500f e236 c00f e236 c00f e236 900f e2b6
00000020: c00f e2b6 c00f e2b6 4010 e236 7364 e2b6
00000030: 0010 e2b6 900f e236 c00f e2b6 900f e236
00000040: 0010 e2b6 f4b9 e1b6 c00f e2b6 900f e2b6
00000050: c00f e236 8010 e236 0010 e236 0010 e2b6
00000060: c00f e236 c00f e2b6 900f e2b6 0010 e236
00000070: 0010 e2b6 c00f e236 c00f e236 c00f e236
00000080: 0010 e2b6 4011 e236 0010 e2b6 c00f e236
00000090: 900f e2b6 c00f e2b6 100f e236 4010 e2b6
000000a0: 0010 e236 0010 e236 c00f e2b6 b323 e3b6
000000b0: 0010 e236 500f e2b6 0010 e236 0010 e2b6
000000c0: 900e e236 4e23 e336 4010 e2b6 100f e2b6
000000d0: 0010 e2b6 0010 e236 0010 e2b6 0010 e2b6
000000e0: 0010 e2b6 0010 e236 0010 e236 0010 e2b6
000000f0: 900f e236 c010 e2b6 0010 e2b6 c00f e236
00000100: c00f e236 0010 e2b6 a2bb 7438 0010 e2b6
00000110: c00f e2b6 0010 e236 0010 e236 0010 e2b6
00000120: 900f e236 0010 e2b6 0010 e2b6 480c 10b9
00000130: 0010 e2b6 c00f e2b6 c00f e2b6 c00f e2b6
00000140: 0010 e236 97b8 66b7 5e78 7c38 c00f e2b6
00000150: 0010 e236 0010 e236 0010 e2b6 0010 e236
00000160: 0010 e2b6 c00f e2b6 0010 e236 0010 e2b6
00000170: c00f e2b6 0010 e236 c00f e2b6 0010 e2b6
00000180: d00e e236 d00e e2b6 0010 e236 a80f e236
00000190: 900f e236 900f e236 900f e236 900f e236
000001a0: 0010 e236 a011 e2b6 c00f e236 f6c7 7438
000001b0: 750f e2b6 4011 e2b6 900f e236 2011 e236
000001c0: 500f e236 02c9 74b8 0010 e2b6 e50f e236
000001d0: c00f e2b6 c00f e2b6 8010 e236 c00f e2b6
000001e0: c00f e236 680f e236 900f e2b6 0010 e2b6
000001f0: 4010 e236 c00f e236 c00f e236 4010 e236
00000200: 500f e2b6 c00f e2b6 500f e236 d00e e2b6
00000210: c011 e2b6 4011 e2b6 900f e236 8011 e2b6
00000220: d00e e2b6 6011 e2b6 4010 e236 b855 e2b6
00000230: c00f e236 500f e2b6 c010 e2b6 6011 e2b6
00000240: d00e e236 77c8 e1b6 4011 e236 0010 e2b6
00000250: 8011 e236 8010 e2b6 4010 e236 4010 e2b6
00000260: 8010 e2b6 0010 e236 500f e236 0010 e236
00000270: c00f e236 900f e2b6 c00f e236 0010 e236
00000280: 0010 e2b6 c00f e2b6 0010 e2b6 900f e236
00000290: c010 e2b6 d00f e236 900f e2b6 500f e236
000002a0: 0010 e236 900f e236 c00f e236 ca07 67b7
000002b0: c00f e2b6 100f e2b6 c00f e236 100f e2b6
000002c0: 900f e236 f762 84b8 900f e236 0010 e2b6
000002d0: 900f e236 900f e2b6 d00e e236 c00f e236
000002e0: 5510 e236 900f e2b6 4010 e236 0010 e236
000002f0: c00f e2b6 4010 e2b6 c00f e2b6 0010 e2b6
00000300: c00f e236 0010 e236 c010 e2b6 0010 e2b6
00000310: 0010 e2b6 4010 e2b6 670f e2b6 0010 e2b6
00000320: 0010 e2b6 0010 e236 c00f e236 1066 e236
00000330: c00f e2b6 c010 e236 0010 e2b6 4010 e2b6
00000340: 0010 e2b6 a12a 67b7 c00f e236 0010 e236
00000350: c00f e2b6 0010 e236 0010 e2b6 0010 e2b6
00000360: 0010 e236 c00f e236 c00f e2b6 c00f e236
00000370: 0010 e2b6 0010 e236 0010 e236 0010 e2b6
00000380: 500f e2b6 d00e e2b6 900f e236 500f e2b6
00000390: 400f e236 4011 e2b6 d00e e2b6 1067 8438
000003a0: 900f e2b6 900f e2b6 4011 e236 38f2 74b8
000003b0: 900f e236 4011 e236 c00f e2b6 c010 e2b6
000003c0: 4010 e236 9dfa e0b6 4010 e2b6 900f e236
000003d0: d510 e236 c00f e2b6 900f e2b6 500f e236
000003e0: 3b67 8438 900f e236 8010 e2b6 500f e236
000003f0: 900e e2b6 500f e2b6 4010 e2b6 500f e2b6
-6.7371584e-06 -6.7371584e-06 -6.7371584e-06 6.7371075e-06 6.7371075e-06 6.7371584e-06 6.7371584e-06 -6.7371366e-06
-6.7371584e-06 -6.7371584e-06 6.7372166e-06 -6.7470187e-06 -6.7371875e-06 6.7371366e-06 -6.7371584e-06 6.7371366e-06
-6.7371875e-06 -6.7271703e-06 -6.7371584e-06 -6.7371366e-06 6.7371584e-06 6.7372457e-06 6.7371875e-06 -6.7371875e-06
6.7371584e-06 -6.7371584e-06 -6.7371366e-06 6.7371875e-06 -6.7371875e-06 6.7371584e-06 6.7371584e-06 6.7371584e-06
-6.7371875e-06 6.737333e-06 -6.7371875e-06 6.7371584e-06 -6.7371366e-06 -6.7371584e-06 6.7370784e-06 -6.7372166e-06
6.7371875e-06 6.7371875e-06 -6.7371584e-06 -6.769283e-06 6.7371875e-06 -6.7371075e-06 6.7371875e-06 -6.7371875e-06
6.73702e-06 6.769237e-06 -6.7372166e-06 -6.7370784e-06 -6.7371875e-06 6.7371875e-06 -6.7371875e-06 -6.7371875e-06
-6.7371875e-06 6.7371875e-06 6.7371875e-06 -6.7371875e-06 6.7371366e-06 -6.737275e-06 -6.7371875e-06 6.7371584e-06
6.7371584e-06 -6.7371875e-06 5.834888e-05 -6.7371875e-06 -6.7371584e-06 6.7371875e-06 6.7371875e-06 -6.7371875e-06
6.7371366e-06 -6.7371875e-06 -6.7371875e-06 -0.00013737485 -6.7371875e-06 -6.7371584e-06 -6.7371584e-06 -6.7371584e-06
6.7371875e-06 -1.37520465e-05 6.0193583e-05 -6.7371584e-06 6.7371875e-06 6.7371875e-06 -6.7371875e-06 6.7371875e-06
-6.7371875e-06 -6.7371584e-06 6.7371875e-06 -6.7371875e-06 -6.7371584e-06 6.7371875e-06 -6.7371584e-06 -6.7371875e-06
6.7370493e-06 -6.7370493e-06 6.7371875e-06 6.7371475e-06 6.7371366e-06 6.7371366e-06 6.7371366e-06 6.7371366e-06
6.7371875e-06 -6.7373767e-06 6.7371584e-06 5.836036e-05 -6.7371243e-06 -6.737333e-06 6.7371366e-06 6.7373185e-06
6.7371075e-06 -5.8361336e-05 -6.7371875e-06 6.737175e-06 -6.7371584e-06 -6.7371584e-06 6.7372457e-06 -6.7371584e-06
6.7371584e-06 6.7371184e-06 -6.7371366e-06 -6.7371875e-06 6.7372166e-06 6.7371584e-06 6.7371584e-06 6.7372166e-06
-6.7371075e-06 -6.7371584e-06 6.7371075e-06 -6.7370493e-06 -6.7373912e-06 -6.737333e-06 6.7371366e-06 -6.737362e-06
-6.7370493e-06 -6.7373476e-06 6.7372166e-06 -6.745304e-06 6.7371584e-06 -6.7371075e-06 -6.737275e-06 -6.7373476e-06
6.7370493e-06 -6.7288597e-06 6.737333e-06 -6.7371875e-06 6.737362e-06 -6.7372457e-06 6.7372166e-06 -6.7372166e-06
-6.7372457e-06 6.7371875e-06 6.7371075e-06 6.7371875e-06 6.7371584e-06 -6.7371366e-06 6.7371584e-06 6.7371875e-06
-6.7371875e-06 -6.7371584e-06 -6.7371875e-06 6.7371366e-06 -6.737275e-06 6.7371657e-06 -6.7371366e-06 6.7371075e-06
6.7371875e-06 6.7371366e-06 6.7371584e-06 -1.37704865e-05 -6.7371584e-06 -6.7370784e-06 6.7371584e-06 -6.7370784e-06
6.7371366e-06 -6.312684e-05 6.7371366e-06 -6.7371875e-06 6.7371366e-06 -6.7371366e-06 6.7370493e-06 6.7371584e-06
6.737226e-06 -6.7371366e-06 6.7372166e-06 6.7371875e-06 -6.7371584e-06 -6.7372166e-06 -6.7371584e-06 -6.7371875e-06
6.7371584e-06 6.7371875e-06 -6.737275e-06 -6.7371875e-06 -6.7371875e-06 -6.7372166e-06 -6.737118e-06 -6.7371875e-06
-6.7371875e-06 6.7371875e-06 6.7371584e-06 6.7472065e-06 -6.7371584e-06 6.737275e-06 -6.7371875e-06 -6.7372166e-06
-6.7371875e-06 -1.3778598e-05 6.7371584e-06 6.7371875e-06 -6.7371584e-06 6.7371875e-06 -6.7371875e-06 -6.7371875e-06
6.7371875e-06 6.7371584e-06 -6.7371584e-06 6.7371584e-06 -6.7371875e-06 6.7371875e-06 6.7371875e-06 -6.7371875e-06
-6.7371075e-06 -6.7370493e-06 6.7371366e-06 -6.7371075e-06 6.7371e-06 -6.737333e-06 -6.7370493e-06 6.3134474e-05
-6.7371366e-06 -6.7371366e-06 6.737333e-06 -5.8399717e-05 6.7371366e-06 6.737333e-06 -6.7371584e-06 -6.737275e-06
6.7372166e-06 -6.7048954e-06 -6.7372166e-06 6.7371366e-06 6.7372844e-06 -6.7371584e-06 -6.7371366e-06 6.7371075e-06
6.313479e-05 6.7371366e-06 -6.7372457e-06 6.7371075e-06 -6.73702e-06 -6.7371075e-06 -6.7372166e-06 -6.7371075e-06
